…
    - 800
    - 900
    - 1000
    - 1100
    - 1200
  DETECTIONS_PER_IMAGE: 100
  EVAL_PERIOD: 1000
  EXPECTED_RESULTS: []
  KEYPOINT_OKS_SIGMAS: []
  LEXICON_TYPE: 1
  PRECISE_BN:
    ENABLED: false
    NUM_ITER: 200
VERSION: 2
VIS_PERIOD: 0

[06/21 14:44:28] detectron2 INFO: Full config saved to output/R50/150k_tt/finetune/totaltext/config.yaml
[06/21 14:44:50] d2.engine.defaults INFO: Model:
TransformerPureDetector(
  (detection_transformer): DETECTION_TRANSFORMER(
    (backbone): Joiner(
      (0): MaskedBackbone(
        (backbone): ResNet(
          (stem): BasicStem(
            (conv1): Conv2d(
              3, 64, kernel_size=(7, 7), stride=(2, 2), padding=(3, 3), bias=False
              (norm): FrozenBatchNorm2d(num_features=64, eps=1e-05)
            )
          )
          (res2): Sequential(
            (0): BottleneckBlock(
              (shortcut): Conv2d(
                64, 256, kernel_size=(1, 1), stride=(1, 1), bias=False
                (norm): FrozenBatchNorm2d(num_features=256, eps=1e-05)
              )
              (conv1): Conv2d(
                64, 64, kernel_size=(1, 1), stride=(1, 1), bias=False
                (norm): FrozenBatchNorm2d(num_features=64, eps=1e-05)
              )
              (conv2): Conv2d(
                64, 64, kernel_size=(3, 3), stride=(1, 1), padding=(1, 1), bias=False
                (norm): FrozenBatchNorm2d(num_features=64, eps=1e-05)
              )
              (conv3): Conv2d(
                64, 256, kernel_size=(1, 1), stride=(1, 1), bias=False
                (norm): FrozenBatchNorm2d(num_features=256, eps=1e-05)
              )
            )
            (1): BottleneckBlock(
              (conv1): Conv2d(
                256, 64, kernel_size=(1, 1), stride=(1, 1), bias=False
                (norm): FrozenBatchNorm2d(num_features=64, eps=1e-05)
              )
              (conv2): Conv2d(
                64, 64, kernel_size=(3, 3), stride=(1, 1), padding=(1, 1), bias=False
                (norm): FrozenBatchNorm2d(num_features=64, eps=1e-05)
              )
              (conv3): Conv2d(
                64, 256, kernel_size=(1, 1), stride=(1, 1), bias=False
                (norm): FrozenBatchNorm2d(num_features=256, eps=1e-05)
              )
            )
            (2): BottleneckBlock(
              (conv1): Conv2d(
                256, 64, kernel_size=(1, 1), stride=(1, 1), bias=False
                (norm): FrozenBatchNorm2d(num_features=64, eps=1e-05)
              )
              (conv2): Conv2d(
                64, 64, kernel_size=(3, 3), stride=(1, 1), padding=(1, 1), bias=False
                (norm): FrozenBatchNorm2d(num_features=64, eps=1e-05)
              )
              (conv3): Conv2d(
                64, 256, kernel_size=(1, 1), stride=(1, 1), bias=False
                (norm): FrozenBatchNorm2d(num_features=256, eps=1e-05)
              )
            )
          )
          (res3): Sequential(
            (0): BottleneckBlock(
              (shortcut): Conv2d(
                256, 512, kernel_size=(1, 1), stride=(2, 2), bias=False
                (norm): FrozenBatchNorm2d(num_features=512, eps=1e-05)
              )
              (conv1): Conv2d(
                256, 128, kernel_size=(1, 1), stride=(1, 1), bias=False
                (norm): FrozenBatchNorm2d(num_features=128, eps=1e-05)
              )
              (conv2): Conv2d(
                128, 128, kernel_size=(3, 3), stride=(2, 2), padding=(1, 1), bias=False
                (norm): FrozenBatchNorm2d(num_features=128, eps=1e-05)
              )
              (conv3): Conv2d(
                128, 512, kernel_size=(1, 1), stride=(1, 1), bias=False
                (norm): FrozenBatchNorm2d(num_features=512, eps=1e-05)
              )
            )
            (1): BottleneckBlock(
              (conv1): Conv2d(
                512, 128, kernel_size=(1, 1), stride=(1, 1), bias=False
                (norm): FrozenBatchNorm2d(num_features=128, eps=1e-05)
              )
              (conv2): Conv2d(
                128, 128, kernel_size=(3, 3), stride=(1, 1), padding=(1, 1), bias=False
                (norm): FrozenBatchNorm2d(num_features=128, eps=1e-05)
              )
              (conv3): Conv2d(
                128, 512, kernel_size=(1, 1), stride=(1, 1), bias=False
                (norm): FrozenBatchNorm2d(num_features=512, eps=1e-05)
              )
            )
            (2): BottleneckBlock(
              (conv1): Conv2d(
                512, 128, kernel_size=(1, 1), stride=(1, 1), bias=False
                (norm): FrozenBatchNorm2d(num_features=128, eps=1e-05)
              )
              (conv2): Conv2d(
                128, 128, kernel_size=(3, 3), stride=(1, 1), padding=(1, 1), bias=False
                (norm): FrozenBatchNorm2d(num_features=128, eps=1e-05)
              )
              (conv3): Conv2d(
                128, 512, kernel_size=(1, 1), stride=(1, 1), bias=False
                (norm): FrozenBatchNorm2d(num_features=512, eps=1e-05)
              )
            )
            (3): BottleneckBlock(
              (conv1): Conv2d(
                512, 128, kernel_size=(1, 1), stride=(1, 1), bias=False
                (norm): FrozenBatchNorm2d(num_features=128, eps=1e-05)
              )
              (conv2): Conv2d(
                128, 128, kernel_size=(3, 3), stride=(1, 1), padding=(1, 1), bias=False
                (norm): FrozenBatchNorm2d(num_features=128, eps=1e-05)
              )
              (conv3): Conv2d(
                128, 512, kernel_size=(1, 1), stride=(1, 1), bias=False
                (norm): FrozenBatchNorm2d(num_features=512, eps=1e-05)
              )
            )
          )
          (res4): Sequential(
            (0): BottleneckBlock(
              (shortcut): Conv2d(
                512, 1024, kernel_size=(1, 1), stride=(2, 2), bias=False
                (norm): FrozenBatchNorm2d(num_features=1024, eps=1e-05)
              )
              (conv1): Conv2d(
                512, 256, kernel_size=(1, 1), stride=(1, 1), bias=False
                (norm): FrozenBatchNorm2d(num_features=256, eps=1e-05)
              )
              (conv2): Conv2d(
                256, 256, kernel_size=(3, 3), stride=(2, 2), padding=(1, 1), bias=False
                (norm): FrozenBatchNorm2d(num_features=256, eps=1e-05)
              )
              (conv3): Conv2d(
                256, 1024, kernel_size=(1, 1), stride=(1, 1), bias=False
                (norm): FrozenBatchNorm2d(num_features=1024, eps=1e-05)
              )
            )
            (1): BottleneckBlock(
              (conv1): Conv2d(
                1024, 256, kernel_size=(1, 1), stride=(1, 1), bias=False
                (norm): FrozenBatchNorm2d(num_features=256, eps=1e-05)
              )
              (conv2): Conv2d(
                256, 256, kernel_size=(3, 3), stride=(1, 1), padding=(1, 1), bias=False
                (norm): FrozenBatchNorm2d(num_features=256, eps=1e-05)
              )
              (conv3): Conv2d(
                256, 1024, kernel_size=(1, 1), stride=(1, 1), bias=False
                (norm): FrozenBatchNorm2d(num_features=1024, eps=1e-05)
              )
            )
            (2): BottleneckBlock(
              (conv1): Conv2d(
                1024, 256, kernel_size=(1, 1), stride=(1, 1), bias=False
                (norm): FrozenBatchNorm2d(num_features=256, eps=1e-05)
              )
              (conv2): Conv2d(
                256, 256, kernel_size=(3, 3), stride=(1, 1), padding=(1, 1), bias=False
                (norm): FrozenBatchNorm2d(num_features=256, eps=1e-05)
              )
              (conv3): Conv2d(
                256, 1024, kernel_size=(1, 1), stride=(1, 1), bias=False
                (norm): FrozenBatchNorm2d(num_features=1024, eps=1e-05)
              )
            )
            (3): BottleneckBlock(
              (conv1): Conv2d(
                1024, 256, kernel_size=(1, 1), stride=(1, 1), bias=False
                (norm): FrozenBatchNorm2d(num_features=256, eps=1e-05)
              )
              (conv2): Conv2d(
                256, 256, kernel_size=(3, 3), stride=(1, 1), padding=(1, 1), bias=False
                (norm): FrozenBatchNorm2d(num_features=256, eps=1e-05)
              )
              (conv3): Conv2d(
                256, 1024, kernel_size=(1, 1), stride=(1, 1), bias=False
                (norm): FrozenBatchNorm2d(num_features=1024, eps=1e-05)
              )
            )
            (4): BottleneckBlock(
              (conv1): Conv2d(
                1024, 256, kernel_size=(1, 1), stride=(1, 1), bias=False
                (norm): FrozenBatchNorm2d(num_features=256, eps=1e-05)
              )
              (conv2): Conv2d(
                256, 256, kernel_size=(3, 3), stride=(1, 1), padding=(1, 1), bias=False
                (norm): FrozenBatchNorm2d(num_features=256, eps=1e-05)
              )
              (conv3): Conv2d(
                256, 1024, kernel_size=(1, 1), stride=(1, 1), bias=False
                (norm): FrozenBatchNorm2d(num_features=1024, eps=1e-05)
              )
            )
            (5): BottleneckBlock(
              (conv1): Conv2d(
                1024, 256, kernel_size=(1, 1), stride=(1, 1), bias=False
                (norm): FrozenBatchNorm2d(num_features=256, eps=1e-05)
              )
              (conv2): Conv2d(
                256, 256, kernel_size=(3, 3), stride=(1, 1), padding=(1, 1), bias=False
                (norm): FrozenBatchNorm2d(num_features=256, eps=1e-05)
              )
              (conv3): Conv2d(
                256, 1024, kernel_size=(1, 1), stride=(1, 1), bias=False
                (norm): FrozenBatchNorm2d(num_features=1024, eps=1e-05)
              )
            )
          )
          (res5): Sequential(
            (0): BottleneckBlock(
              (shortcut): Conv2d(
                1024, 2048, kernel_size=(1, 1), stride=(2, 2), bias=False
                (norm): FrozenBatchNorm2d(num_features=2048, eps=1e-05)
              )
              (conv1): Conv2d(
                1024, 512, kernel_size=(1, 1), stride=(1, 1), bias=False
                (norm): FrozenBatchNorm2d(num_features=512, eps=1e-05)
              )
              (conv2): Conv2d(
                512, 512, kernel_size=(3, 3), stride=(2, 2), padding=(1, 1), bias=False
                (norm): FrozenBatchNorm2d(num_features=512, eps=1e-05)
              )
              (conv3): Conv2d(
                512, 2048, kernel_size=(1, 1), stride=(1, 1), bias=False
                (norm): FrozenBatchNorm2d(num_features=2048, eps=1e-05)
              )
            )
            (1): BottleneckBlock(
              (conv1): Conv2d(
                2048, 512, kernel_size=(1, 1), stride=(1, 1), bias=False
                (norm): FrozenBatchNorm2d(num_features=512, eps=1e-05)
              )
              (conv2): Conv2d(
                512, 512, kernel_size=(3, 3), stride=(1, 1), padding=(1, 1), bias=False
                (norm): FrozenBatchNorm2d(num_features=512, eps=1e-05)
              )
              (conv3): Conv2d(
                512, 2048, kernel_size=(1, 1), stride=(1, 1), bias=False
                (norm): FrozenBatchNorm2d(num_features=2048, eps=1e-05)
              )
            )
            (2): BottleneckBlock(
              (conv1): Conv2d(
                2048, 512, kernel_size=(1, 1), stride=(1, 1), bias=False
                (norm): FrozenBatchNorm2d(num_features=512, eps=1e-05)
              )
              (conv2): Conv2d(
                512, 512, kernel_size=(3, 3), stride=(1, 1), padding=(1, 1), bias=False
                (norm): FrozenBatchNorm2d(num_features=512, eps=1e-05)
              )
              (conv3): Conv2d(
                512, 2048, kernel_size=(1, 1), stride=(1, 1), bias=False
                (norm): FrozenBatchNorm2d(num_features=2048, eps=1e-05)
              )
            )
          )
        )
      )
      (1): PositionalEncoding2D()
    )
    (point_embed): Embedding(2500, 256)
    (transformer): DeformableTransformer(
      (encoder): DeformableTransformerEncoder(
        (layers): ModuleList(
          (0): DeformableTransformerEncoderLayer(
            (self_attn): MSDeformAttn(
              (sampling_offsets): Linear(in_features=256, out_features=256, bias=True)
              (attention_weights): Linear(in_features=256, out_features=128, bias=True)
              (value_proj): Linear(in_features=256, out_features=256, bias=True)
              (output_proj): Linear(in_features=256, out_features=256, bias=True)
            )
            (dropout1): Dropout(p=0.0, inplace=False)
            (norm1): LayerNorm((256,), eps=1e-05, elementwise_affine=True)
            (linear1): Linear(in_features=256, out_features=1024, bias=True)
            (dropout2): Dropout(p=0.0, inplace=False)
            (linear2): Linear(in_features=1024, out_features=256, bias=True)
            (dropout3): Dropout(p=0.0, inplace=False)
            (norm2): LayerNorm((256,), eps=1e-05, elementwise_affine=True)
          )
          (1): DeformableTransformerEncoderLayer(
            (self_attn): MSDeformAttn(
              (sampling_offsets): Linear(in_features=256, out_features=256, bias=True)
              (attention_weights): Linear(in_features=256, out_features=128, bias=True)
              (value_proj): Linear(in_features=256, out_features=256, bias=True)
              (output_proj): Linear(in_features=256, out_features=256, bias=True)
            )
            (dropout1): Dropout(p=0.0, inplace=False)
            (norm1): LayerNorm((256,), eps=1e-05, elementwise_affine=True)
            (linear1): Linear(in_features=256, out_features=1024, bias=True)
            (dropout2): Dropout(p=0.0, inplace=False)
            (linear2): Linear(in_features=1024, out_features=256, bias=True)
            (dropout3): Dropout(p=0.0, inplace=False)
            (norm2): LayerNorm((256,), eps=1e-05, elementwise_affine=True)
          )
          (2): DeformableTransformerEncoderLayer(
            (self_attn): MSDeformAttn(
              (sampling_offsets): Linear(in_features=256, out_features=256, bias=True)
              (attention_weights): Linear(in_features=256, out_features=128, bias=True)
              (value_proj): Linear(in_features=256, out_features=256, bias=True)
              (output_proj): Linear(in_features=256, out_features=256, bias=True)
            )
            (dropout1): Dropout(p=0.0, inplace=False)
            (norm1): LayerNorm((256,), eps=1e-05, elementwise_affine=True)
            (linear1): Linear(in_features=256, out_features=1024, bias=True)
            (dropout2): Dropout(p=0.0, inplace=False)
            (linear2): Linear(in_features=1024, out_features=256, bias=True)
            (dropout3): Dropout(p=0.0, inplace=False)
            (norm2): LayerNorm((256,), eps=1e-05, elementwise_affine=True)
          )
          (3): DeformableTransformerEncoderLayer(
            (self_attn): MSDeformAttn(
              (sampling_offsets): Linear(in_features=256, out_features=256, bias=True)
              (attention_weights): Linear(in_features=256, out_features=128, bias=True)
              (value_proj): Linear(in_features=256, out_features=256, bias=True)
              (output_proj): Linear(in_features=256, out_features=256, bias=True)
            )
            (dropout1): Dropout(p=0.0, inplace=False)
            (norm1): LayerNorm((256,), eps=1e-05, elementwise_affine=True)
            (linear1): Linear(in_features=256, out_features=1024, bias=True)
            (dropout2): Dropout(p=0.0, inplace=False)
            (linear2): Linear(in_features=1024, out_features=256, bias=True)
            (dropout3): Dropout(p=0.0, inplace=False)
            (norm2): LayerNorm((256,), eps=1e-05, elementwise_affine=True)
          )
          (4): DeformableTransformerEncoderLayer(
            (self_attn): MSDeformAttn(
              (sampling_offsets): Linear(in_features=256, out_features=256, bias=True)
              (attention_weights): Linear(in_features=256, out_features=128, bias=True)
              (value_proj): Linear(in_features=256, out_features=256, bias=True)
              (output_proj): Linear(in_features=256, out_features=256, bias=True)
            )
            (dropout1): Dropout(p=0.0, inplace=False)
            (norm1): LayerNorm((256,), eps=1e-05, elementwise_affine=True)
            (linear1): Linear(in_features=256, out_features=1024, bias=True)
            (dropout2): Dropout(p=0.0, inplace=False)
            (linear2): Linear(in_features=1024, out_features=256, bias=True)
            (dropout3): Dropout(p=0.0, inplace=False)
            (norm2): LayerNorm((256,), eps=1e-05, elementwise_affine=True)
          )
          (5): DeformableTransformerEncoderLayer(
            (self_attn): MSDeformAttn(
              (sampling_offsets): Linear(in_features=256, out_features=256, bias=True)
              (attention_weights): Linear(in_features=256, out_features=128, bias=True)
              (value_proj): Linear(in_features=256, out_features=256, bias=True)
              (output_proj): Linear(in_features=256, out_features=256, bias=True)
            )
            (dropout1): Dropout(p=0.0, inplace=False)
            (norm1): LayerNorm((256,), eps=1e-05, elementwise_affine=True)
            (linear1): Linear(in_features=256, out_features=1024, bias=True)
            (dropout2): Dropout(p=0.0, inplace=False)
            (linear2): Linear(in_features=1024, out_features=256, bias=True)
            (dropout3): Dropout(p=0.0, inplace=False)
            (norm2): LayerNorm((256,), eps=1e-05, elementwise_affine=True)
          )
        )
      )
      (decoder): DeformableCompositeTransformerDecoder(
        (layers): ModuleList(
          (0): DeformableCompositeTransformerDecoderLayer(
            (attn_intra): MultiheadAttention(
              (out_proj): NonDynamicallyQuantizableLinear(in_features=256, out_features=256, bias=True)
            )
            (norm_intra): LayerNorm((256,), eps=1e-05, elementwise_affine=True)
            (dropout_intra): Dropout(p=0.0, inplace=False)
            (attn_inter): MultiheadAttention(
              (out_proj): NonDynamicallyQuantizableLinear(in_features=256, out_features=256, bias=True)
            )
            (dropout_inter): Dropout(p=0.0, inplace=False)
            (norm_inter): LayerNorm((256,), eps=1e-05, elementwise_affine=True)
            (attn_cross): MSDeformAttn(
              (sampling_offsets): Linear(in_features=256, out_features=256, bias=True)
              (attention_weights): Linear(in_features=256, out_features=128, bias=True)
              (value_proj): Linear(in_features=256, out_features=256, bias=True)
              (output_proj): Linear(in_features=256, out_features=256, bias=True)
            )
            (dropout_cross): Dropout(p=0.0, inplace=False)
            (norm_cross): LayerNorm((256,), eps=1e-05, elementwise_affine=True)
            (linear1): Linear(in_features=256, out_features=1024, bias=True)
            (dropout3): Dropout(p=0.0, inplace=False)
            (linear2): Linear(in_features=1024, out_features=256, bias=True)
            (dropout4): Dropout(p=0.0, inplace=False)
            (norm3): LayerNorm((256,), eps=1e-05, elementwise_affine=True)
          )
          (1): DeformableCompositeTransformerDecoderLayer(
            (attn_intra): MultiheadAttention(
              (out_proj): NonDynamicallyQuantizableLinear(in_features=256, out_features=256, bias=True)
            )
            (norm_intra): LayerNorm((256,), eps=1e-05, elementwise_affine=True)
            (dropout_intra): Dropout(p=0.0, inplace=False)
            (attn_inter): MultiheadAttention(
              (out_proj): NonDynamicallyQuantizableLinear(in_features=256, out_features=256, bias=True)
            )
            (dropout_inter): Dropout(p=0.0, inplace=False)
            (norm_inter): LayerNorm((256,), eps=1e-05, elementwise_affine=True)
            (attn_cross): MSDeformAttn(
              (sampling_offsets): Linear(in_features=256, out_features=256, bias=True)
              (attention_weights): Linear(in_features=256, out_features=128, bias=True)
              (value_proj): Linear(in_features=256, out_features=256, bias=True)
              (output_proj): Linear(in_features=256, out_features=256, bias=True)
            )
            (dropout_cross): Dropout(p=0.0, inplace=False)
            (norm_cross): LayerNorm((256,), eps=1e-05, elementwise_affine=True)
            (linear1): Linear(in_features=256, out_features=1024, bias=True)
            (dropout3): Dropout(p=0.0, inplace=False)
            (linear2): Linear(in_features=1024, out_features=256, bias=True)
            (dropout4): Dropout(p=0.0, inplace=False)
            (norm3): LayerNorm((256,), eps=1e-05, elementwise_affine=True)
          )
          (2): DeformableCompositeTransformerDecoderLayer(
            (attn_intra): MultiheadAttention(
              (out_proj): NonDynamicallyQuantizableLinear(in_features=256, out_features=256, bias=True)
            )
            (norm_intra): LayerNorm((256,), eps=1e-05, elementwise_affine=True)
            (dropout_intra): Dropout(p=0.0, inplace=False)
            (attn_inter): MultiheadAttention(
              (out_proj): NonDynamicallyQuantizableLinear(in_features=256, out_features=256, bias=True)
            )
            (dropout_inter): Dropout(p=0.0, inplace=False)
            (norm_inter): LayerNorm((256,), eps=1e-05, elementwise_affine=True)
            (attn_cross): MSDeformAttn(
              (sampling_offsets): Linear(in_features=256, out_features=256, bias=True)
              (attention_weights): Linear(in_features=256, out_features=128, bias=True)
              (value_proj): Linear(in_features=256, out_features=256, bias=True)
              (output_proj): Linear(in_features=256, out_features=256, bias=True)
            )
            (dropout_cross): Dropout(p=0.0, inplace=False)
            (norm_cross): LayerNorm((256,), eps=1e-05, elementwise_affine=True)
            (linear1): Linear(in_features=256, out_features=1024, bias=True)
            (dropout3): Dropout(p=0.0, inplace=False)
            (linear2): Linear(in_features=1024, out_features=256, bias=True)
            (dropout4): Dropout(p=0.0, inplace=False)
            (norm3): LayerNorm((256,), eps=1e-05, elementwise_affine=True)
          )
          (3): DeformableCompositeTransformerDecoderLayer(
            (attn_intra): MultiheadAttention(
              (out_proj): NonDynamicallyQuantizableLinear(in_features=256, out_features=256, bias=True)
            )
            (norm_intra): LayerNorm((256,), eps=1e-05, elementwise_affine=True)
            (dropout_intra): Dropout(p=0.0, inplace=False)
            (attn_inter): MultiheadAttention(
              (out_proj): NonDynamicallyQuantizableLinear(in_features=256, out_features=256, bias=True)
            )
            (dropout_inter): Dropout(p=0.0, inplace=False)
            (norm_inter): LayerNorm((256,), eps=1e-05, elementwise_affine=True)
            (attn_cross): MSDeformAttn(
              (sampling_offsets): Linear(in_features=256, out_features=256, bias=True)
              (attention_weights): Linear(in_features=256, out_features=128, bias=True)
              (value_proj): Linear(in_features=256, out_features=256, bias=True)
              (output_proj): Linear(in_features=256, out_features=256, bias=True)
            )
            (dropout_cross): Dropout(p=0.0, inplace=False)
            (norm_cross): LayerNorm((256,), eps=1e-05, elementwise_affine=True)
            (linear1): Linear(in_features=256, out_features=1024, bias=True)
            (dropout3): Dropout(p=0.0, inplace=False)
            (linear2): Linear(in_features=1024, out_features=256, bias=True)
            (dropout4): Dropout(p=0.0, inplace=False)
            (norm3): LayerNorm((256,), eps=1e-05, elementwise_affine=True)
          )
          (4): DeformableCompositeTransformerDecoderLayer(
            (attn_intra): MultiheadAttention(
              (out_proj): NonDynamicallyQuantizableLinear(in_features=256, out_features=256, bias=True)
            )
            (norm_intra): LayerNorm((256,), eps=1e-05, elementwise_affine=True)
            (dropout_intra): Dropout(p=0.0, inplace=False)
            (attn_inter): MultiheadAttention(
              (out_proj): NonDynamicallyQuantizableLinear(in_features=256, out_features=256, bias=True)
            )
            (dropout_inter): Dropout(p=0.0, inplace=False)
            (norm_inter): LayerNorm((256,), eps=1e-05, elementwise_affine=True)
            (attn_cross): MSDeformAttn(
              (sampling_offsets): Linear(in_features=256, out_features=256, bias=True)
              (attention_weights): Linear(in_features=256, out_features=128, bias=True)
              (value_proj): Linear(in_features=256, out_features=256, bias=True)
              (output_proj): Linear(in_features=256, out_features=256, bias=True)
            )
            (dropout_cross): Dropout(p=0.0, inplace=False)
            (norm_cross): LayerNorm((256,), eps=1e-05, elementwise_affine=True)
            (linear1): Linear(in_features=256, out_features=1024, bias=True)
            (dropout3): Dropout(p=0.0, inplace=False)
            (linear2): Linear(in_features=1024, out_features=256, bias=True)
            (dropout4): Dropout(p=0.0, inplace=False)
            (norm3): LayerNorm((256,), eps=1e-05, elementwise_affine=True)
          )
          (5): DeformableCompositeTransformerDecoderLayer(
            (attn_intra): MultiheadAttention(
              (out_proj): NonDynamicallyQuantizableLinear(in_features=256, out_features=256, bias=True)
            )
            (norm_intra): LayerNorm((256,), eps=1e-05, elementwise_affine=True)
            (dropout_intra): Dropout(p=0.0, inplace=False)
            (attn_inter): MultiheadAttention(
              (out_proj): NonDynamicallyQuantizableLinear(in_features=256, out_features=256, bias=True)
            )
            (dropout_inter): Dropout(p=0.0, inplace=False)
            (norm_inter): LayerNorm((256,), eps=1e-05, elementwise_affine=True)
            (attn_cross): MSDeformAttn(
              (sampling_offsets): Linear(in_features=256, out_features=256, bias=True)
              (attention_weights): Linear(in_features=256, out_features=128, bias=True)
              (value_proj): Linear(in_features=256, out_features=256, bias=True)
              (output_proj): Linear(in_features=256, out_features=256, bias=True)
            )
            (dropout_cross): Dropout(p=0.0, inplace=False)
            (norm_cross): LayerNorm((256,), eps=1e-05, elementwise_affine=True)
            (linear1): Linear(in_features=256, out_features=1024, bias=True)
            (dropout3): Dropout(p=0.0, inplace=False)
            (linear2): Linear(in_features=1024, out_features=256, bias=True)
            (dropout4): Dropout(p=0.0, inplace=False)
            (norm3): LayerNorm((256,), eps=1e-05, elementwise_affine=True)
          )
        )
        (ref_point_head): MLP(
          (layers): ModuleList(
            (0): Linear(in_features=256, out_features=256, bias=True)
            (1): Linear(in_features=256, out_features=256, bias=True)
          )
        )
        (ctrl_point_coord): ModuleList(
          (0): MLP(
            (layers): ModuleList(
              (0): Linear(in_features=256, out_features=256, bias=True)
              (1): Linear(in_features=256, out_features=256, bias=True)
              (2): Linear(in_features=256, out_features=2, bias=True)
            )
          )
          (1): MLP(
            (layers): ModuleList(
              (0): Linear(in_features=256, out_features=256, bias=True)
              (1): Linear(in_features=256, out_features=256, bias=True)
              (2): Linear(in_features=256, out_features=2, bias=True)
            )
          )
          (2): MLP(
            (layers): ModuleList(
              (0): Linear(in_features=256, out_features=256, bias=True)
              (1): Linear(in_features=256, out_features=256, bias=True)
              (2): Linear(in_features=256, out_features=2, bias=True)
            )
          )
          (3): MLP(
            (layers): ModuleList(
              (0): Linear(in_features=256, out_features=256, bias=True)
              (1): Linear(in_features=256, out_features=256, bias=True)
              (2): Linear(in_features=256, out_features=2, bias=True)
            )
          )
          (4): MLP(
            (layers): ModuleList(
              (0): Linear(in_features=256, out_features=256, bias=True)
              (1): Linear(in_features=256, out_features=256, bias=True)
              (2): Linear(in_features=256, out_features=2, bias=True)
            )
          )
          (5): MLP(
            (layers): ModuleList(
              (0): Linear(in_features=256, out_features=256, bias=True)
              (1): Linear(in_features=256, out_features=256, bias=True)
              (2): Linear(in_features=256, out_features=2, bias=True)
            )
          )
        )
      )
      (enc_output): Linear(in_features=256, out_features=256, bias=True)
      (enc_output_norm): LayerNorm((256,), eps=1e-05, elementwise_affine=True)
      (bezier_coord_embed): MLP(
        (layers): ModuleList(
          (0): Linear(in_features=256, out_features=256, bias=True)
          (1): Linear(in_features=256, out_features=256, bias=True)
          (2): Linear(in_features=256, out_features=8, bias=True)
        )
      )
      (bezier_class_embed): Linear(in_features=256, out_features=1, bias=True)
    )
    (input_proj): ModuleList(
      (0): Sequential(
        (0): Conv2d(512, 256, kernel_size=(1, 1), stride=(1, 1))
        (1): GroupNorm(32, 256, eps=1e-05, affine=True)
      )
      (1): Sequential(
        (0): Conv2d(1024, 256, kernel_size=(1, 1), stride=(1, 1))
        (1): GroupNorm(32, 256, eps=1e-05, affine=True)
      )
      (2): Sequential(
        (0): Conv2d(2048, 256, kernel_size=(1, 1), stride=(1, 1))
        (1): GroupNorm(32, 256, eps=1e-05, affine=True)
      )
      (3): Sequential(
        (0): Conv2d(2048, 256, kernel_size=(3, 3), stride=(2, 2), padding=(1, 1))
        (1): GroupNorm(32, 256, eps=1e-05, affine=True)
      )
    )
    (bezier_proposal_coord): MLP(
      (layers): ModuleList(
        (0): Linear(in_features=256, out_features=256, bias=True)
        (1): Linear(in_features=256, out_features=256, bias=True)
        (2): Linear(in_features=256, out_features=8, bias=True)
      )
    )
    (bezier_proposal_class): Linear(in_features=256, out_features=1, bias=True)
    (ctrl_point_coord): ModuleList(
      (0): MLP(
        (layers): ModuleList(
          (0): Linear(in_features=256, out_features=256, bias=True)
          (1): Linear(in_features=256, out_features=256, bias=True)
          (2): Linear(in_features=256, out_features=2, bias=True)
        )
      )
      (1): MLP(
        (layers): ModuleList(
          (0): Linear(in_features=256, out_features=256, bias=True)
          (1): Linear(in_features=256, out_features=256, bias=True)
          (2): Linear(in_features=256, out_features=2, bias=True)
        )
      )
      (2): MLP(
        (layers): ModuleList(
          (0): Linear(in_features=256, out_features=256, bias=True)
          (1): Linear(in_features=256, out_features=256, bias=True)
          (2): Linear(in_features=256, out_features=2, bias=True)
        )
      )
      (3): MLP(
        (layers): ModuleList(
          (0): Linear(in_features=256, out_features=256, bias=True)
          (1): Linear(in_features=256, out_features=256, bias=True)
          (2): Linear(in_features=256, out_features=2, bias=True)
        )
      )
      (4): MLP(
        (layers): ModuleList(
          (0): Linear(in_features=256, out_features=256, bias=True)
          (1): Linear(in_features=256, out_features=256, bias=True)
          (2): Linear(in_features=256, out_features=2, bias=True)
        )
      )
      (5): MLP(
        (layers): ModuleList(
          (0): Linear(in_features=256, out_features=256, bias=True)
          (1): Linear(in_features=256, out_features=256, bias=True)
          (2): Linear(in_features=256, out_features=2, bias=True)
        )
      )
    )
    (ctrl_point_class): ModuleList(
      (0): Linear(in_features=256, out_features=1, bias=True)
      (1): Linear(in_features=256, out_features=1, bias=True)
      (2): Linear(in_features=256, out_features=1, bias=True)
      (3): Linear(in_features=256, out_features=1, bias=True)
      (4): Linear(in_features=256, out_features=1, bias=True)
      (5): Linear(in_features=256, out_features=1, bias=True)
    )
    (ctrl_point_text): ModuleList(
      (0): Linear(in_features=256, out_features=38, bias=True)
      (1): Linear(in_features=256, out_features=38, bias=True)
      (2): Linear(in_features=256, out_features=38, bias=True)
      (3): Linear(in_features=256, out_features=38, bias=True)
      (4): Linear(in_features=256, out_features=38, bias=True)
      (5): Linear(in_features=256, out_features=38, bias=True)
    )
    (boundary_offset): ModuleList(
      (0): MLP(
        (layers): ModuleList(
          (0): Linear(in_features=256, out_features=256, bias=True)
          (1): Linear(in_features=256, out_features=256, bias=True)
          (2): Linear(in_features=256, out_features=4, bias=True)
        )
      )
      (1): MLP(
        (layers): ModuleList(
          (0): Linear(in_features=256, out_features=256, bias=True)
          (1): Linear(in_features=256, out_features=256, bias=True)
          (2): Linear(in_features=256, out_features=4, bias=True)
        )
      )
      (2): MLP(
        (layers): ModuleList(
          (0): Linear(in_features=256, out_features=256, bias=True)
          (1): Linear(in_features=256, out_features=256, bias=True)
          (2): Linear(in_features=256, out_features=4, bias=True)
        )
      )
      (3): MLP(
        (layers): ModuleList(
          (0): Linear(in_features=256, out_features=256, bias=True)
          (1): Linear(in_features=256, out_features=256, bias=True)
          (2): Linear(in_features=256, out_features=4, bias=True)
        )
      )
      (4): MLP(
        (layers): ModuleList(
          (0): Linear(in_features=256, out_features=256, bias=True)
          (1): Linear(in_features=256, out_features=256, bias=True)
          (2): Linear(in_features=256, out_features=4, bias=True)
        )
      )
      (5): MLP(
        (layers): ModuleList(
          (0): Linear(in_features=256, out_features=256, bias=True)
          (1): Linear(in_features=256, out_features=256, bias=True)
          (2): Linear(in_features=256, out_features=4, bias=True)
        )
      )
    )
  )
  (criterion): SetCriterion(
    (enc_matcher): BezierHungarianMatcher(
      (bezier_sampler): BezierSampler()
    )
    (dec_matcher): CtrlPointHungarianMatcher()
    (bezier_sampler): BezierSampler()
  )
)
[06/21 14:44:50] fvcore.common.checkpoint INFO: [Checkpointer] Loading from output/R50/150k_tt/pretrain/model_final.pth ...
…
