…
  KEYPOINT_OKS_SIGMAS: []
  LEXICON_TYPE: 3
  PRECISE_BN:
    ENABLED: false
    NUM_ITER: 200
VERSION: 2
VIS_PERIOD: 0

[07/09 11:02:03] detectron2 INFO: Full config saved to output/vitaev2_s/150k_tt_mlt_13_15_textocr/finetune/ic15/config.yaml
[07/09 11:02:37] d2.engine.defaults INFO: Model:
TransformerPureDetector(
  (detection_transformer): DETECTION_TRANSFORMER(
    (backbone): Joiner(
      (0): MaskedBackbone(
        (backbone): ViTAEv2(
          (layers): ModuleList(
            (0): BasicLayer(
              (RC): ReductionCell(
                (PCM): Sequential(
                  (0): Conv2d(3, 64, kernel_size=(3, 3), stride=(2, 2), padding=(1, 1))
                  (1): BatchNorm2d(64, eps=1e-05, momentum=0.1, affine=True, track_running_stats=True)
                  (2): SiLU(inplace=True)
                  (3): Conv2d(64, 64, kernel_size=(3, 3), stride=(2, 2), padding=(1, 1))
                  (4): BatchNorm2d(64, eps=1e-05, momentum=0.1, affine=True, track_running_stats=True)
                  (5): SiLU(inplace=True)
                  (6): Conv2d(64, 64, kernel_size=(3, 3), stride=(1, 1), padding=(1, 1))
                )
                (PRM): PRM(
                  (convs): ModuleList(
                    (0): Sequential(
                      (0): Conv2d(3, 64, kernel_size=(7, 7), stride=(4, 4), padding=(2, 2))
                      (1): GELU()
                    )
                    (1): Sequential(
                      (0): Conv2d(3, 64, kernel_size=(7, 7), stride=(4, 4), padding=(5, 5), dilation=(2, 2))
                      (1): GELU()
                    )
                    (2): Sequential(
                      (0): Conv2d(3, 64, kernel_size=(7, 7), stride=(4, 4), padding=(8, 8), dilation=(3, 3))
                      (1): GELU()
                    )
                    (3): Sequential(
                      (0): Conv2d(3, 64, kernel_size=(7, 7), stride=(4, 4), padding=(11, 11), dilation=(4, 4))
                      (1): GELU()
                    )
                  )
                )
                (attn): WindowTransformerBlock(
                  (norm1): LayerNorm((256,), eps=1e-05, elementwise_affine=True)
                  (attn): WindowAttention(
                    dim=64, window_size=(7, 7), num_heads=1
                    (qkv): Linear(in_features=256, out_features=192, bias=True)
                    (attn_drop): Dropout(p=0.0, inplace=False)
                    (proj): Linear(in_features=64, out_features=64, bias=True)
                    (proj_drop): Dropout(p=0.0, inplace=False)
                    (softmax): Softmax(dim=-1)
                  )
                  (drop_path): Identity()
                  (norm2): LayerNorm((64,), eps=1e-05, elementwise_affine=True)
                  (mlp): Mlp(
                    (fc1): Linear(in_features=64, out_features=64, bias=True)
                    (act): GELU()
                    (fc2): Linear(in_features=64, out_features=64, bias=True)
                    (drop): Dropout(p=0.0, inplace=False)
                  )
                )
              )
              (NC): ModuleList(
                (0): NormalCell(
                  (norm1): LayerNorm((64,), eps=1e-06, elementwise_affine=True)
                  (attn): WindowAttention(
                    dim=64, window_size=(7, 7), num_heads=1
                    (qkv): Linear(in_features=64, out_features=192, bias=True)
                    (attn_drop): Dropout(p=0.0, inplace=False)
                    (proj): Linear(in_features=64, out_features=64, bias=True)
                    (proj_drop): Dropout(p=0.0, inplace=False)
                    (softmax): Softmax(dim=-1)
                  )
                  (drop_path): Identity()
                  (norm2): LayerNorm((64,), eps=1e-06, elementwise_affine=True)
                  (mlp): Mlp(
                    (fc1): Linear(in_features=64, out_features=256, bias=True)
                    (act): GELU()
                    (fc2): Linear(in_features=256, out_features=64, bias=True)
                    (drop): Dropout(p=0.0, inplace=False)
                  )
                  (PCM): Sequential(
                    (0): Conv2d(64, 256, kernel_size=(3, 3), stride=(1, 1), padding=(1, 1))
                    (1): BatchNorm2d(256, eps=1e-05, momentum=0.1, affine=True, track_running_stats=True)
                    (2): SiLU(inplace=True)
                    (3): Conv2d(256, 64, kernel_size=(3, 3), stride=(1, 1), padding=(1, 1))
                    (4): BatchNorm2d(64, eps=1e-05, momentum=0.1, affine=True, track_running_stats=True)
                    (5): SiLU(inplace=True)
                    (6): Conv2d(64, 64, kernel_size=(3, 3), stride=(1, 1), padding=(1, 1))
                  )
                )
                (1): NormalCell(
                  (norm1): LayerNorm((64,), eps=1e-06, elementwise_affine=True)
                  (attn): WindowAttention(
                    dim=64, window_size=(7, 7), num_heads=1
                    (qkv): Linear(in_features=64, out_features=192, bias=True)
                    (attn_drop): Dropout(p=0.0, inplace=False)
                    (proj): Linear(in_features=64, out_features=64, bias=True)
                    (proj_drop): Dropout(p=0.0, inplace=False)
                    (softmax): Softmax(dim=-1)
                  )
                  (drop_path): DropPath(drop_prob=0.015)
                  (norm2): LayerNorm((64,), eps=1e-06, elementwise_affine=True)
                  (mlp): Mlp(
                    (fc1): Linear(in_features=64, out_features=256, bias=True)
                    (act): GELU()
                    (fc2): Linear(in_features=256, out_features=64, bias=True)
                    (drop): Dropout(p=0.0, inplace=False)
                  )
                  (PCM): Sequential(
                    (0): Conv2d(64, 256, kernel_size=(3, 3), stride=(1, 1), padding=(1, 1))
                    (1): BatchNorm2d(256, eps=1e-05, momentum=0.1, affine=True, track_running_stats=True)
                    (2): SiLU(inplace=True)
                    (3): Conv2d(256, 64, kernel_size=(3, 3), stride=(1, 1), padding=(1, 1))
                    (4): BatchNorm2d(64, eps=1e-05, momentum=0.1, affine=True, track_running_stats=True)
                    (5): SiLU(inplace=True)
                    (6): Conv2d(64, 64, kernel_size=(3, 3), stride=(1, 1), padding=(1, 1))
                  )
                )
              )
            )
            (1): BasicLayer(
              (RC): ReductionCell(
                (PCM): Sequential(
                  (0): Conv2d(64, 64, kernel_size=(3, 3), stride=(2, 2), padding=(1, 1), groups=16)
                  (1): BatchNorm2d(64, eps=1e-05, momentum=0.1, affine=True, track_running_stats=True)
                  (2): SiLU(inplace=True)
                  (3): Conv2d(64, 64, kernel_size=(3, 3), stride=(1, 1), padding=(1, 1), groups=16)
                  (4): BatchNorm2d(64, eps=1e-05, momentum=0.1, affine=True, track_running_stats=True)
                  (5): SiLU(inplace=True)
                  (6): Conv2d(64, 128, kernel_size=(3, 3), stride=(1, 1), padding=(1, 1), groups=16)
                )
                (PRM): PRM(
                  (convs): ModuleList(
                    (0): Sequential(
                      (0): Conv2d(64, 64, kernel_size=(3, 3), stride=(2, 2), padding=(1, 1))
                      (1): GELU()
                    )
                    (1): Sequential(
                      (0): Conv2d(64, 64, kernel_size=(3, 3), stride=(2, 2), padding=(2, 2), dilation=(2, 2))
                      (1): GELU()
                    )
                    (2): Sequential(
                      (0): Conv2d(64, 64, kernel_size=(3, 3), stride=(2, 2), padding=(3, 3), dilation=(3, 3))
                      (1): GELU()
                    )
                  )
                )
                (attn): WindowTransformerBlock(
                  (norm1): LayerNorm((192,), eps=1e-05, elementwise_affine=True)
                  (attn): WindowAttention(
                    dim=128, window_size=(7, 7), num_heads=1
                    (qkv): Linear(in_features=192, out_features=384, bias=True)
                    (attn_drop): Dropout(p=0.0, inplace=False)
                    (proj): Linear(in_features=128, out_features=128, bias=True)
                    (proj_drop): Dropout(p=0.0, inplace=False)
                    (softmax): Softmax(dim=-1)
                  )
                  (drop_path): Identity()
                  (norm2): LayerNorm((128,), eps=1e-05, elementwise_affine=True)
                  (mlp): Mlp(
                    (fc1): Linear(in_features=128, out_features=128, bias=True)
                    (act): GELU()
                    (fc2): Linear(in_features=128, out_features=128, bias=True)
                    (drop): Dropout(p=0.0, inplace=False)
                  )
                )
              )
              (NC): ModuleList(
                (0): NormalCell(
                  (norm1): LayerNorm((128,), eps=1e-06, elementwise_affine=True)
                  (attn): WindowAttention(
                    dim=128, window_size=(7, 7), num_heads=2
                    (qkv): Linear(in_features=128, out_features=384, bias=True)
                    (attn_drop): Dropout(p=0.0, inplace=False)
                    (proj): Linear(in_features=128, out_features=128, bias=True)
                    (proj_drop): Dropout(p=0.0, inplace=False)
                    (softmax): Softmax(dim=-1)
                  )
                  (drop_path): DropPath(drop_prob=0.031)
                  (norm2): LayerNorm((128,), eps=1e-06, elementwise_affine=True)
                  (mlp): Mlp(
                    (fc1): Linear(in_features=128, out_features=512, bias=True)
                    (act): GELU()
                    (fc2): Linear(in_features=512, out_features=128, bias=True)
                    (drop): Dropout(p=0.0, inplace=False)
                  )
                  (PCM): Sequential(
                    (0): Conv2d(128, 512, kernel_size=(3, 3), stride=(1, 1), padding=(1, 1), groups=32)
                    (1): BatchNorm2d(512, eps=1e-05, momentum=0.1, affine=True, track_running_stats=True)
                    (2): SiLU(inplace=True)
                    (3): Conv2d(512, 128, kernel_size=(3, 3), stride=(1, 1), padding=(1, 1), groups=32)
                    (4): BatchNorm2d(128, eps=1e-05, momentum=0.1, affine=True, track_running_stats=True)
                    (5): SiLU(inplace=True)
                    (6): Conv2d(128, 128, kernel_size=(3, 3), stride=(1, 1), padding=(1, 1), groups=32)
                  )
                )
                (1): NormalCell(
                  (norm1): LayerNorm((128,), eps=1e-06, elementwise_affine=True)
                  (attn): WindowAttention(
                    dim=128, window_size=(7, 7), num_heads=2
                    (qkv): Linear(in_features=128, out_features=384, bias=True)
                    (attn_drop): Dropout(p=0.0, inplace=False)
                    (proj): Linear(in_features=128, out_features=128, bias=True)
                    (proj_drop): Dropout(p=0.0, inplace=False)
                    (softmax): Softmax(dim=-1)
                  )
                  (drop_path): DropPath(drop_prob=0.046)
                  (norm2): LayerNorm((128,), eps=1e-06, elementwise_affine=True)
                  (mlp): Mlp(
                    (fc1): Linear(in_features=128, out_features=512, bias=True)
                    (act): GELU()
                    (fc2): Linear(in_features=512, out_features=128, bias=True)
                    (drop): Dropout(p=0.0, inplace=False)
                  )
                  (PCM): Sequential(
                    (0): Conv2d(128, 512, kernel_size=(3, 3), stride=(1, 1), padding=(1, 1), groups=32)
                    (1): BatchNorm2d(512, eps=1e-05, momentum=0.1, affine=True, track_running_stats=True)
                    (2): SiLU(inplace=True)
                    (3): Conv2d(512, 128, kernel_size=(3, 3), stride=(1, 1), padding=(1, 1), groups=32)
                    (4): BatchNorm2d(128, eps=1e-05, momentum=0.1, affine=True, track_running_stats=True)
                    (5): SiLU(inplace=True)
                    (6): Conv2d(128, 128, kernel_size=(3, 3), stride=(1, 1), padding=(1, 1), groups=32)
                  )
                )
              )
            )
            (2): BasicLayer(
              (RC): ReductionCell(
                (PCM): Sequential(
                  (0): Conv2d(128, 128, kernel_size=(3, 3), stride=(2, 2), padding=(1, 1), groups=32)
                  (1): BatchNorm2d(128, eps=1e-05, momentum=0.1, affine=True, track_running_stats=True)
                  (2): SiLU(inplace=True)
                  (3): Conv2d(128, 128, kernel_size=(3, 3), stride=(1, 1), padding=(1, 1), groups=32)
                  (4): BatchNorm2d(128, eps=1e-05, momentum=0.1, affine=True, track_running_stats=True)
                  (5): SiLU(inplace=True)
                  (6): Conv2d(128, 256, kernel_size=(3, 3), stride=(1, 1), padding=(1, 1), groups=32)
                )
                (PRM): PRM(
                  (convs): ModuleList(
                    (0): Sequential(
                      (0): Conv2d(128, 128, kernel_size=(3, 3), stride=(2, 2), padding=(1, 1))
                      (1): GELU()
                    )
                    (1): Sequential(
                      (0): Conv2d(128, 128, kernel_size=(3, 3), stride=(2, 2), padding=(2, 2), dilation=(2, 2))
                      (1): GELU()
                    )
                  )
                )
                (attn): Token_transformer(
                  (norm1): LayerNorm((256,), eps=1e-05, elementwise_affine=True)
                  (attn): Attention(
                    (qkv): Linear(in_features=256, out_features=768, bias=False)
                    (attn_drop): Dropout(p=0.0, inplace=False)
                    (proj): Linear(in_features=256, out_features=256, bias=True)
                    (proj_drop): Dropout(p=0.0, inplace=False)
                  )
                  (drop_path): Identity()
                  (norm2): LayerNorm((256,), eps=1e-05, elementwise_affine=True)
                  (mlp): Mlp(
                    (fc1): Linear(in_features=256, out_features=256, bias=True)
                    (act): GELU()
                    (fc2): Linear(in_features=256, out_features=256, bias=True)
                    (drop): Dropout(p=0.0, inplace=False)
                  )
                )
              )
              (NC): ModuleList(
                (0): NormalCell(
                  (norm1): LayerNorm((256,), eps=1e-06, elementwise_affine=True)
                  (attn): Attention(
                    (qkv): Linear(in_features=256, out_features=768, bias=True)
                    (attn_drop): Dropout(p=0.0, inplace=False)
                    (proj): Linear(in_features=256, out_features=256, bias=True)
                    (proj_drop): Dropout(p=0.0, inplace=False)
                  )
                  (drop_path): DropPath(drop_prob=0.031)
                  (norm2): LayerNorm((256,), eps=1e-06, elementwise_affine=True)
                  (mlp): Mlp(
                    (fc1): Linear(in_features=256, out_features=1024, bias=True)
                    (act): GELU()
                    (fc2): Linear(in_features=1024, out_features=256, bias=True)
                    (drop): Dropout(p=0.0, inplace=False)
                  )
                  (PCM): Sequential(
                    (0): Conv2d(256, 1024, kernel_size=(3, 3), stride=(1, 1), padding=(1, 1), groups=64)
                    (1): BatchNorm2d(1024, eps=1e-05, momentum=0.1, affine=True, track_running_stats=True)
                    (2): SiLU(inplace=True)
                    (3): Conv2d(1024, 256, kernel_size=(3, 3), stride=(1, 1), padding=(1, 1), groups=64)
                    (4): BatchNorm2d(256, eps=1e-05, momentum=0.1, affine=True, track_running_stats=True)
                    (5): SiLU(inplace=True)
                    (6): Conv2d(256, 256, kernel_size=(3, 3), stride=(1, 1), padding=(1, 1), groups=64)
                  )
                )
                (1): NormalCell(
                  (norm1): LayerNorm((256,), eps=1e-06, elementwise_affine=True)
                  (attn): Attention(
                    (qkv): Linear(in_features=256, out_features=768, bias=True)
                    (attn_drop): Dropout(p=0.0, inplace=False)
                    (proj): Linear(in_features=256, out_features=256, bias=True)
                    (proj_drop): Dropout(p=0.0, inplace=False)
                  )
                  (drop_path): DropPath(drop_prob=0.046)
                  (norm2): LayerNorm((256,), eps=1e-06, elementwise_affine=True)
                  (mlp): Mlp(
                    (fc1): Linear(in_features=256, out_features=1024, bias=True)
                    (act): GELU()
                    (fc2): Linear(in_features=1024, out_features=256, bias=True)
                    (drop): Dropout(p=0.0, inplace=False)
                  )
                  (PCM): Sequential(
                    (0): Conv2d(256, 1024, kernel_size=(3, 3), stride=(1, 1), padding=(1, 1), groups=64)
                    (1): BatchNorm2d(1024, eps=1e-05, momentum=0.1, affine=True, track_running_stats=True)
                    (2): SiLU(inplace=True)
                    (3): Conv2d(1024, 256, kernel_size=(3, 3), stride=(1, 1), padding=(1, 1), groups=64)
                    (4): BatchNorm2d(256, eps=1e-05, momentum=0.1, affine=True, track_running_stats=True)
                    (5): SiLU(inplace=True)
                    (6): Conv2d(256, 256, kernel_size=(3, 3), stride=(1, 1), padding=(1, 1), groups=64)
                  )
                )
                (2): NormalCell(
                  (norm1): LayerNorm((256,), eps=1e-06, elementwise_affine=True)
                  (attn): Attention(
                    (qkv): Linear(in_features=256, out_features=768, bias=True)
                    (attn_drop): Dropout(p=0.0, inplace=False)
                    (proj): Linear(in_features=256, out_features=256, bias=True)
                    (proj_drop): Dropout(p=0.0, inplace=False)
                  )
                  (drop_path): DropPath(drop_prob=0.062)
                  (norm2): LayerNorm((256,), eps=1e-06, elementwise_affine=True)
                  (mlp): Mlp(
                    (fc1): Linear(in_features=256, out_features=1024, bias=True)
                    (act): GELU()
                    (fc2): Linear(in_features=1024, out_features=256, bias=True)
                    (drop): Dropout(p=0.0, inplace=False)
                  )
                  (PCM): Sequential(
                    (0): Conv2d(256, 1024, kernel_size=(3, 3), stride=(1, 1), padding=(1, 1), groups=64)
                    (1): BatchNorm2d(1024, eps=1e-05, momentum=0.1, affine=True, track_running_stats=True)
                    (2): SiLU(inplace=True)
                    (3): Conv2d(1024, 256, kernel_size=(3, 3), stride=(1, 1), padding=(1, 1), groups=64)
                    (4): BatchNorm2d(256, eps=1e-05, momentum=0.1, affine=True, track_running_stats=True)
                    (5): SiLU(inplace=True)
                    (6): Conv2d(256, 256, kernel_size=(3, 3), stride=(1, 1), padding=(1, 1), groups=64)
                  )
                )
                (3): NormalCell(
                  (norm1): LayerNorm((256,), eps=1e-06, elementwise_affine=True)
                  (attn): Attention(
                    (qkv): Linear(in_features=256, out_features=768, bias=True)
                    (attn_drop): Dropout(p=0.0, inplace=False)
                    (proj): Linear(in_features=256, out_features=256, bias=True)
                    (proj_drop): Dropout(p=0.0, inplace=False)
                  )
                  (drop_path): DropPath(drop_prob=0.077)
                  (norm2): LayerNorm((256,), eps=1e-06, elementwise_affine=True)
                  (mlp): Mlp(
                    (fc1): Linear(in_features=256, out_features=1024, bias=True)
                    (act): GELU()
                    (fc2): Linear(in_features=1024, out_features=256, bias=True)
                    (drop): Dropout(p=0.0, inplace=False)
                  )
                  (PCM): Sequential(
                    (0): Conv2d(256, 1024, kernel_size=(3, 3), stride=(1, 1), padding=(1, 1), groups=64)
                    (1): BatchNorm2d(1024, eps=1e-05, momentum=0.1, affine=True, track_running_stats=True)
                    (2): SiLU(inplace=True)
                    (3): Conv2d(1024, 256, kernel_size=(3, 3), stride=(1, 1), padding=(1, 1), groups=64)
                    (4): BatchNorm2d(256, eps=1e-05, momentum=0.1, affine=True, track_running_stats=True)
                    (5): SiLU(inplace=True)
                    (6): Conv2d(256, 256, kernel_size=(3, 3), stride=(1, 1), padding=(1, 1), groups=64)
                  )
                )
                (4): NormalCell(
                  (norm1): LayerNorm((256,), eps=1e-06, elementwise_affine=True)
                  (attn): Attention(
                    (qkv): Linear(in_features=256, out_features=768, bias=True)
                    (attn_drop): Dropout(p=0.0, inplace=False)
                    (proj): Linear(in_features=256, out_features=256, bias=True)
                    (proj_drop): Dropout(p=0.0, inplace=False)
                  )
                  (drop_path): DropPath(drop_prob=0.092)
                  (norm2): LayerNorm((256,), eps=1e-06, elementwise_affine=True)
                  (mlp): Mlp(
                    (fc1): Linear(in_features=256, out_features=1024, bias=True)
                    (act): GELU()
                    (fc2): Linear(in_features=1024, out_features=256, bias=True)
                    (drop): Dropout(p=0.0, inplace=False)
                  )
                  (PCM): Sequential(
                    (0): Conv2d(256, 1024, kernel_size=(3, 3), stride=(1, 1), padding=(1, 1), groups=64)
                    (1): BatchNorm2d(1024, eps=1e-05, momentum=0.1, affine=True, track_running_stats=True)
                    (2): SiLU(inplace=True)
                    (3): Conv2d(1024, 256, kernel_size=(3, 3), stride=(1, 1), padding=(1, 1), groups=64)
                    (4): BatchNorm2d(256, eps=1e-05, momentum=0.1, affine=True, track_running_stats=True)
                    (5): SiLU(inplace=True)
                    (6): Conv2d(256, 256, kernel_size=(3, 3), stride=(1, 1), padding=(1, 1), groups=64)
                  )
                )
                (5): NormalCell(
                  (norm1): LayerNorm((256,), eps=1e-06, elementwise_affine=True)
                  (attn): Attention(
                    (qkv): Linear(in_features=256, out_features=768, bias=True)
                    (attn_drop): Dropout(p=0.0, inplace=False)
                    (proj): Linear(in_features=256, out_features=256, bias=True)
                    (proj_drop): Dropout(p=0.0, inplace=False)
                  )
                  (drop_path): DropPath(drop_prob=0.108)
                  (norm2): LayerNorm((256,), eps=1e-06, elementwise_affine=True)
                  (mlp): Mlp(
                    (fc1): Linear(in_features=256, out_features=1024, bias=True)
                    (act): GELU()
                    (fc2): Linear(in_features=1024, out_features=256, bias=True)
                    (drop): Dropout(p=0.0, inplace=False)
                  )
                  (PCM): Sequential(
                    (0): Conv2d(256, 1024, kernel_size=(3, 3), stride=(1, 1), padding=(1, 1), groups=64)
                    (1): BatchNorm2d(1024, eps=1e-05, momentum=0.1, affine=True, track_running_stats=True)
                    (2): SiLU(inplace=True)
                    (3): Conv2d(1024, 256, kernel_size=(3, 3), stride=(1, 1), padding=(1, 1), groups=64)
                    (4): BatchNorm2d(256, eps=1e-05, momentum=0.1, affine=True, track_running_stats=True)
                    (5): SiLU(inplace=True)
                    (6): Conv2d(256, 256, kernel_size=(3, 3), stride=(1, 1), padding=(1, 1), groups=64)
                  )
                )
                (6): NormalCell(
                  (norm1): LayerNorm((256,), eps=1e-06, elementwise_affine=True)
                  (attn): Attention(
                    (qkv): Linear(in_features=256, out_features=768, bias=True)
                    (attn_drop): Dropout(p=0.0, inplace=False)
                    (proj): Linear(in_features=256, out_features=256, bias=True)
                    (proj_drop): Dropout(p=0.0, inplace=False)
                  )
                  (drop_path): DropPath(drop_prob=0.123)
                  (norm2): LayerNorm((256,), eps=1e-06, elementwise_affine=True)
                  (mlp): Mlp(
                    (fc1): Linear(in_features=256, out_features=1024, bias=True)
                    (act): GELU()
                    (fc2): Linear(in_features=1024, out_features=256, bias=True)
                    (drop): Dropout(p=0.0, inplace=False)
                  )
                  (PCM): Sequential(
                    (0): Conv2d(256, 1024, kernel_size=(3, 3), stride=(1, 1), padding=(1, 1), groups=64)
                    (1): BatchNorm2d(1024, eps=1e-05, momentum=0.1, affine=True, track_running_stats=True)
                    (2): SiLU(inplace=True)
                    (3): Conv2d(1024, 256, kernel_size=(3, 3), stride=(1, 1), padding=(1, 1), groups=64)
                    (4): BatchNorm2d(256, eps=1e-05, momentum=0.1, affine=True, track_running_stats=True)
                    (5): SiLU(inplace=True)
                    (6): Conv2d(256, 256, kernel_size=(3, 3), stride=(1, 1), padding=(1, 1), groups=64)
                  )
                )
                (7): NormalCell(
                  (norm1): LayerNorm((256,), eps=1e-06, elementwise_affine=True)
                  (attn): Attention(
                    (qkv): Linear(in_features=256, out_features=768, bias=True)
                    (attn_drop): Dropout(p=0.0, inplace=False)
                    (proj): Linear(in_features=256, out_features=256, bias=True)
                    (proj_drop): Dropout(p=0.0, inplace=False)
                  )
                  (drop_path): DropPath(drop_prob=0.138)
                  (norm2): LayerNorm((256,), eps=1e-06, elementwise_affine=True)
                  (mlp): Mlp(
                    (fc1): Linear(in_features=256, out_features=1024, bias=True)
                    (act): GELU()
                    (fc2): Linear(in_features=1024, out_features=256, bias=True)
                    (drop): Dropout(p=0.0, inplace=False)
                  )
                  (PCM): Sequential(
                    (0): Conv2d(256, 1024, kernel_size=(3, 3), stride=(1, 1), padding=(1, 1), groups=64)
                    (1): BatchNorm2d(1024, eps=1e-05, momentum=0.1, affine=True, track_running_stats=True)
                    (2): SiLU(inplace=True)
                    (3): Conv2d(1024, 256, kernel_size=(3, 3), stride=(1, 1), padding=(1, 1), groups=64)
                    (4): BatchNorm2d(256, eps=1e-05, momentum=0.1, affine=True, track_running_stats=True)
                    (5): SiLU(inplace=True)
                    (6): Conv2d(256, 256, kernel_size=(3, 3), stride=(1, 1), padding=(1, 1), groups=64)
                  )
                )
              )
            )
            (3): BasicLayer(
              (RC): ReductionCell(
                (PCM): Sequential(
                  (0): Conv2d(256, 256, kernel_size=(3, 3), stride=(2, 2), padding=(1, 1), groups=64)
                  (1): BatchNorm2d(256, eps=1e-05, momentum=0.1, affine=True, track_running_stats=True)
                  (2): SiLU(inplace=True)
                  (3): Conv2d(256, 256, kernel_size=(3, 3), stride=(1, 1), padding=(1, 1), groups=64)
                  (4): BatchNorm2d(256, eps=1e-05, momentum=0.1, affine=True, track_running_stats=True)
                  (5): SiLU(inplace=True)
                  (6): Conv2d(256, 512, kernel_size=(3, 3), stride=(1, 1), padding=(1, 1), groups=64)
                )
                (PRM): PRM(
                  (convs): ModuleList(
                    (0): Sequential(
                      (0): Conv2d(256, 256, kernel_size=(3, 3), stride=(2, 2), padding=(1, 1))
                      (1): GELU()
                    )
                    (1): Sequential(
                      (0): Conv2d(256, 256, kernel_size=(3, 3), stride=(2, 2), padding=(2, 2), dilation=(2, 2))
                      (1): GELU()
                    )
                  )
                )
                (attn): Token_transformer(
                  (norm1): LayerNorm((512,), eps=1e-05, elementwise_affine=True)
                  (attn): Attention(
                    (qkv): Linear(in_features=512, out_features=1536, bias=False)
                    (attn_drop): Dropout(p=0.0, inplace=False)
                    (proj): Linear(in_features=512, out_features=512, bias=True)
                    (proj_drop): Dropout(p=0.0, inplace=False)
                  )
                  (drop_path): Identity()
                  (norm2): LayerNorm((512,), eps=1e-05, elementwise_affine=True)
                  (mlp): Mlp(
                    (fc1): Linear(in_features=512, out_features=512, bias=True)
                    (act): GELU()
                    (fc2): Linear(in_features=512, out_features=512, bias=True)
                    (drop): Dropout(p=0.0, inplace=False)
                  )
                )
              )
              (NC): ModuleList(
                (0): NormalCell(
                  (norm1): LayerNorm((512,), eps=1e-06, elementwise_affine=True)
                  (attn): Attention(
                    (qkv): Linear(in_features=512, out_features=1536, bias=True)
                    (attn_drop): Dropout(p=0.0, inplace=False)
                    (proj): Linear(in_features=512, out_features=512, bias=True)
                    (proj_drop): Dropout(p=0.0, inplace=False)
                  )
                  (drop_path): DropPath(drop_prob=0.123)
                  (norm2): LayerNorm((512,), eps=1e-06, elementwise_affine=True)
                  (mlp): Mlp(
                    (fc1): Linear(in_features=512, out_features=2048, bias=True)
                    (act): GELU()
                    (fc2): Linear(in_features=2048, out_features=512, bias=True)
                    (drop): Dropout(p=0.0, inplace=False)
                  )
                  (PCM): Sequential(
                    (0): Conv2d(512, 2048, kernel_size=(3, 3), stride=(1, 1), padding=(1, 1), groups=128)
                    (1): BatchNorm2d(2048, eps=1e-05, momentum=0.1, affine=True, track_running_stats=True)
                    (2): SiLU(inplace=True)
                    (3): Conv2d(2048, 512, kernel_size=(3, 3), stride=(1, 1), padding=(1, 1), groups=128)
                    (4): BatchNorm2d(512, eps=1e-05, momentum=0.1, affine=True, track_running_stats=True)
                    (5): SiLU(inplace=True)
                    (6): Conv2d(512, 512, kernel_size=(3, 3), stride=(1, 1), padding=(1, 1), groups=128)
                  )
                )
                (1): NormalCell(
                  (norm1): LayerNorm((512,), eps=1e-06, elementwise_affine=True)
                  (attn): Attention(
                    (qkv): Linear(in_features=512, out_features=1536, bias=True)
                    (attn_drop): Dropout(p=0.0, inplace=False)
                    (proj): Linear(in_features=512, out_features=512, bias=True)
                    (proj_drop): Dropout(p=0.0, inplace=False)
                  )
                  (drop_path): DropPath(drop_prob=0.138)
                  (norm2): LayerNorm((512,), eps=1e-06, elementwise_affine=True)
                  (mlp): Mlp(
                    (fc1): Linear(in_features=512, out_features=2048, bias=True)
                    (act): GELU()
                    (fc2): Linear(in_features=2048, out_features=512, bias=True)
                    (drop): Dropout(p=0.0, inplace=False)
                  )
                  (PCM): Sequential(
                    (0): Conv2d(512, 2048, kernel_size=(3, 3), stride=(1, 1), padding=(1, 1), groups=128)
                    (1): BatchNorm2d(2048, eps=1e-05, momentum=0.1, affine=True, track_running_stats=True)
                    (2): SiLU(inplace=True)
                    (3): Conv2d(2048, 512, kernel_size=(3, 3), stride=(1, 1), padding=(1, 1), groups=128)
                    (4): BatchNorm2d(512, eps=1e-05, momentum=0.1, affine=True, track_running_stats=True)
                    (5): SiLU(inplace=True)
                    (6): Conv2d(512, 512, kernel_size=(3, 3), stride=(1, 1), padding=(1, 1), groups=128)
                  )
                )
              )
            )
          )
        )
      )
      (1): PositionalEncoding2D()
    )
    (point_embed): Embedding(2500, 256)
    (transformer): DeformableTransformer(
      (encoder): DeformableTransformerEncoder(
        (layers): ModuleList(
          (0): DeformableTransformerEncoderLayer(
            (self_attn): MSDeformAttn(
              (sampling_offsets): Linear(in_features=256, out_features=256, bias=True)
              (attention_weights): Linear(in_features=256, out_features=128, bias=True)
              (value_proj): Linear(in_features=256, out_features=256, bias=True)
              (output_proj): Linear(in_features=256, out_features=256, bias=True)
            )
            (dropout1): Dropout(p=0.0, inplace=False)
            (norm1): LayerNorm((256,), eps=1e-05, elementwise_affine=True)
            (linear1): Linear(in_features=256, out_features=1024, bias=True)
            (dropout2): Dropout(p=0.0, inplace=False)
            (linear2): Linear(in_features=1024, out_features=256, bias=True)
            (dropout3): Dropout(p=0.0, inplace=False)
            (norm2): LayerNorm((256,), eps=1e-05, elementwise_affine=True)
          )
          (1): DeformableTransformerEncoderLayer(
            (self_attn): MSDeformAttn(
              (sampling_offsets): Linear(in_features=256, out_features=256, bias=True)
              (attention_weights): Linear(in_features=256, out_features=128, bias=True)
              (value_proj): Linear(in_features=256, out_features=256, bias=True)
              (output_proj): Linear(in_features=256, out_features=256, bias=True)
            )
            (dropout1): Dropout(p=0.0, inplace=False)
            (norm1): LayerNorm((256,), eps=1e-05, elementwise_affine=True)
            (linear1): Linear(in_features=256, out_features=1024, bias=True)
            (dropout2): Dropout(p=0.0, inplace=False)
            (linear2): Linear(in_features=1024, out_features=256, bias=True)
            (dropout3): Dropout(p=0.0, inplace=False)
            (norm2): LayerNorm((256,), eps=1e-05, elementwise_affine=True)
          )
          (2): DeformableTransformerEncoderLayer(
            (self_attn): MSDeformAttn(
              (sampling_offsets): Linear(in_features=256, out_features=256, bias=True)
              (attention_weights): Linear(in_features=256, out_features=128, bias=True)
              (value_proj): Linear(in_features=256, out_features=256, bias=True)
              (output_proj): Linear(in_features=256, out_features=256, bias=True)
            )
            (dropout1): Dropout(p=0.0, inplace=False)
            (norm1): LayerNorm((256,), eps=1e-05, elementwise_affine=True)
            (linear1): Linear(in_features=256, out_features=1024, bias=True)
            (dropout2): Dropout(p=0.0, inplace=False)
            (linear2): Linear(in_features=1024, out_features=256, bias=True)
            (dropout3): Dropout(p=0.0, inplace=False)
            (norm2): LayerNorm((256,), eps=1e-05, elementwise_affine=True)
          )
          (3): DeformableTransformerEncoderLayer(
            (self_attn): MSDeformAttn(
              (sampling_offsets): Linear(in_features=256, out_features=256, bias=True)
              (attention_weights): Linear(in_features=256, out_features=128, bias=True)
              (value_proj): Linear(in_features=256, out_features=256, bias=True)
              (output_proj): Linear(in_features=256, out_features=256, bias=True)
            )
            (dropout1): Dropout(p=0.0, inplace=False)
            (norm1): LayerNorm((256,), eps=1e-05, elementwise_affine=True)
            (linear1): Linear(in_features=256, out_features=1024, bias=True)
            (dropout2): Dropout(p=0.0, inplace=False)
            (linear2): Linear(in_features=1024, out_features=256, bias=True)
            (dropout3): Dropout(p=0.0, inplace=False)
            (norm2): LayerNorm((256,), eps=1e-05, elementwise_affine=True)
          )
          (4): DeformableTransformerEncoderLayer(
            (self_attn): MSDeformAttn(
              (sampling_offsets): Linear(in_features=256, out_features=256, bias=True)
              (attention_weights): Linear(in_features=256, out_features=128, bias=True)
              (value_proj): Linear(in_features=256, out_features=256, bias=True)
              (output_proj): Linear(in_features=256, out_features=256, bias=True)
            )
            (dropout1): Dropout(p=0.0, inplace=False)
            (norm1): LayerNorm((256,), eps=1e-05, elementwise_affine=True)
            (linear1): Linear(in_features=256, out_features=1024, bias=True)
            (dropout2): Dropout(p=0.0, inplace=False)
            (linear2): Linear(in_features=1024, out_features=256, bias=True)
            (dropout3): Dropout(p=0.0, inplace=False)
            (norm2): LayerNorm((256,), eps=1e-05, elementwise_affine=True)
          )
          (5): DeformableTransformerEncoderLayer(
            (self_attn): MSDeformAttn(
              (sampling_offsets): Linear(in_features=256, out_features=256, bias=True)
              (attention_weights): Linear(in_features=256, out_features=128, bias=True)
              (value_proj): Linear(in_features=256, out_features=256, bias=True)
              (output_proj): Linear(in_features=256, out_features=256, bias=True)
            )
            (dropout1): Dropout(p=0.0, inplace=False)
            (norm1): LayerNorm((256,), eps=1e-05, elementwise_affine=True)
            (linear1): Linear(in_features=256, out_features=1024, bias=True)
            (dropout2): Dropout(p=0.0, inplace=False)
            (linear2): Linear(in_features=1024, out_features=256, bias=True)
            (dropout3): Dropout(p=0.0, inplace=False)
            (norm2): LayerNorm((256,), eps=1e-05, elementwise_affine=True)
          )
        )
      )
      (decoder): DeformableCompositeTransformerDecoder(
        (layers): ModuleList(
          (0): DeformableCompositeTransformerDecoderLayer(
            (attn_intra): MultiheadAttention(
              (out_proj): NonDynamicallyQuantizableLinear(in_features=256, out_features=256, bias=True)
            )
            (norm_intra): LayerNorm((256,), eps=1e-05, elementwise_affine=True)
            (dropout_intra): Dropout(p=0.0, inplace=False)
            (attn_inter): MultiheadAttention(
              (out_proj): NonDynamicallyQuantizableLinear(in_features=256, out_features=256, bias=True)
            )
            (dropout_inter): Dropout(p=0.0, inplace=False)
            (norm_inter): LayerNorm((256,), eps=1e-05, elementwise_affine=True)
            (attn_cross): MSDeformAttn(
              (sampling_offsets): Linear(in_features=256, out_features=256, bias=True)
              (attention_weights): Linear(in_features=256, out_features=128, bias=True)
              (value_proj): Linear(in_features=256, out_features=256, bias=True)
              (output_proj): Linear(in_features=256, out_features=256, bias=True)
            )
            (dropout_cross): Dropout(p=0.0, inplace=False)
            (norm_cross): LayerNorm((256,), eps=1e-05, elementwise_affine=True)
            (linear1): Linear(in_features=256, out_features=1024, bias=True)
            (dropout3): Dropout(p=0.0, inplace=False)
            (linear2): Linear(in_features=1024, out_features=256, bias=True)
            (dropout4): Dropout(p=0.0, inplace=False)
            (norm3): LayerNorm((256,), eps=1e-05, elementwise_affine=True)
          )
          (1): DeformableCompositeTransformerDecoderLayer(
            (attn_intra): MultiheadAttention(
              (out_proj): NonDynamicallyQuantizableLinear(in_features=256, out_features=256, bias=True)
            )
            (norm_intra): LayerNorm((256,), eps=1e-05, elementwise_affine=True)
            (dropout_intra): Dropout(p=0.0, inplace=False)
            (attn_inter): MultiheadAttention(
              (out_proj): NonDynamicallyQuantizableLinear(in_features=256, out_features=256, bias=True)
            )
            (dropout_inter): Dropout(p=0.0, inplace=False)
            (norm_inter): LayerNorm((256,), eps=1e-05, elementwise_affine=True)
            (attn_cross): MSDeformAttn(
              (sampling_offsets): Linear(in_features=256, out_features=256, bias=True)
              (attention_weights): Linear(in_features=256, out_features=128, bias=True)
              (value_proj): Linear(in_features=256, out_features=256, bias=True)
              (output_proj): Linear(in_features=256, out_features=256, bias=True)
            )
            (dropout_cross): Dropout(p=0.0, inplace=False)
            (norm_cross): LayerNorm((256,), eps=1e-05, elementwise_affine=True)
            (linear1): Linear(in_features=256, out_features=1024, bias=True)
            (dropout3): Dropout(p=0.0, inplace=False)
            (linear2): Linear(in_features=1024, out_features=256, bias=True)
            (dropout4): Dropout(p=0.0, inplace=False)
            (norm3): LayerNorm((256,), eps=1e-05, elementwise_affine=True)
          )
          (2): DeformableCompositeTransformerDecoderLayer(
            (attn_intra): MultiheadAttention(
              (out_proj): NonDynamicallyQuantizableLinear(in_features=256, out_features=256, bias=True)
            )
            (norm_intra): LayerNorm((256,), eps=1e-05, elementwise_affine=True)
            (dropout_intra): Dropout(p=0.0, inplace=False)
            (attn_inter): MultiheadAttention(
              (out_proj): NonDynamicallyQuantizableLinear(in_features=256, out_features=256, bias=True)
            )
            (dropout_inter): Dropout(p=0.0, inplace=False)
            (norm_inter): LayerNorm((256,), eps=1e-05, elementwise_affine=True)
            (attn_cross): MSDeformAttn(
              (sampling_offsets): Linear(in_features=256, out_features=256, bias=True)
              (attention_weights): Linear(in_features=256, out_features=128, bias=True)
              (value_proj): Linear(in_features=256, out_features=256, bias=True)
              (output_proj): Linear(in_features=256, out_features=256, bias=True)
            )
            (dropout_cross): Dropout(p=0.0, inplace=False)
            (norm_cross): LayerNorm((256,), eps=1e-05, elementwise_affine=True)
            (linear1): Linear(in_features=256, out_features=1024, bias=True)
            (dropout3): Dropout(p=0.0, inplace=False)
            (linear2): Linear(in_features=1024, out_features=256, bias=True)
            (dropout4): Dropout(p=0.0, inplace=False)
            (norm3): LayerNorm((256,), eps=1e-05, elementwise_affine=True)
          )
          (3): DeformableCompositeTransformerDecoderLayer(
            (attn_intra): MultiheadAttention(
              (out_proj): NonDynamicallyQuantizableLinear(in_features=256, out_features=256, bias=True)
            )
            (norm_intra): LayerNorm((256,), eps=1e-05, elementwise_affine=True)
            (dropout_intra): Dropout(p=0.0, inplace=False)
            (attn_inter): MultiheadAttention(
              (out_proj): NonDynamicallyQuantizableLinear(in_features=256, out_features=256, bias=True)
            )
            (dropout_inter): Dropout(p=0.0, inplace=False)
            (norm_inter): LayerNorm((256,), eps=1e-05, elementwise_affine=True)
            (attn_cross): MSDeformAttn(
              (sampling_offsets): Linear(in_features=256, out_features=256, bias=True)
              (attention_weights): Linear(in_features=256, out_features=128, bias=True)
              (value_proj): Linear(in_features=256, out_features=256, bias=True)
              (output_proj): Linear(in_features=256, out_features=256, bias=True)
            )
            (dropout_cross): Dropout(p=0.0, inplace=False)
            (norm_cross): LayerNorm((256,), eps=1e-05, elementwise_affine=True)
            (linear1): Linear(in_features=256, out_features=1024, bias=True)
            (dropout3): Dropout(p=0.0, inplace=False)
            (linear2): Linear(in_features=1024, out_features=256, bias=True)
            (dropout4): Dropout(p=0.0, inplace=False)
            (norm3): LayerNorm((256,), eps=1e-05, elementwise_affine=True)
          )
          (4): DeformableCompositeTransformerDecoderLayer(
            (attn_intra): MultiheadAttention(
              (out_proj): NonDynamicallyQuantizableLinear(in_features=256, out_features=256, bias=True)
            )
            (norm_intra): LayerNorm((256,), eps=1e-05, elementwise_affine=True)
            (dropout_intra): Dropout(p=0.0, inplace=False)
            (attn_inter): MultiheadAttention(
              (out_proj): NonDynamicallyQuantizableLinear(in_features=256, out_features=256, bias=True)
            )
            (dropout_inter): Dropout(p=0.0, inplace=False)
            (norm_inter): LayerNorm((256,), eps=1e-05, elementwise_affine=True)
            (attn_cross): MSDeformAttn(
              (sampling_offsets): Linear(in_features=256, out_features=256, bias=True)
              (attention_weights): Linear(in_features=256, out_features=128, bias=True)
              (value_proj): Linear(in_features=256, out_features=256, bias=True)
              (output_proj): Linear(in_features=256, out_features=256, bias=True)
            )
            (dropout_cross): Dropout(p=0.0, inplace=False)
            (norm_cross): LayerNorm((256,), eps=1e-05, elementwise_affine=True)
            (linear1): Linear(in_features=256, out_features=1024, bias=True)
            (dropout3): Dropout(p=0.0, inplace=False)
            (linear2): Linear(in_features=1024, out_features=256, bias=True)
            (dropout4): Dropout(p=0.0, inplace=False)
            (norm3): LayerNorm((256,), eps=1e-05, elementwise_affine=True)
          )
          (5): DeformableCompositeTransformerDecoderLayer(
            (attn_intra): MultiheadAttention(
              (out_proj): NonDynamicallyQuantizableLinear(in_features=256, out_features=256, bias=True)
            )
            (norm_intra): LayerNorm((256,), eps=1e-05, elementwise_affine=True)
            (dropout_intra): Dropout(p=0.0, inplace=False)
            (attn_inter): MultiheadAttention(
              (out_proj): NonDynamicallyQuantizableLinear(in_features=256, out_features=256, bias=True)
            )
            (dropout_inter): Dropout(p=0.0, inplace=False)
            (norm_inter): LayerNorm((256,), eps=1e-05, elementwise_affine=True)
            (attn_cross): MSDeformAttn(
              (sampling_offsets): Linear(in_features=256, out_features=256, bias=True)
              (attention_weights): Linear(in_features=256, out_features=128, bias=True)
              (value_proj): Linear(in_features=256, out_features=256, bias=True)
              (output_proj): Linear(in_features=256, out_features=256, bias=True)
            )
            (dropout_cross): Dropout(p=0.0, inplace=False)
            (norm_cross): LayerNorm((256,), eps=1e-05, elementwise_affine=True)
            (linear1): Linear(in_features=256, out_features=1024, bias=True)
            (dropout3): Dropout(p=0.0, inplace=False)
            (linear2): Linear(in_features=1024, out_features=256, bias=True)
            (dropout4): Dropout(p=0.0, inplace=False)
            (norm3): LayerNorm((256,), eps=1e-05, elementwise_affine=True)
          )
        )
        (ref_point_head): MLP(
          (layers): ModuleList(
            (0): Linear(in_features=256, out_features=256, bias=True)
            (1): Linear(in_features=256, out_features=256, bias=True)
          )
        )
        (ctrl_point_coord): ModuleList(
          (0): MLP(
            (layers): ModuleList(
              (0): Linear(in_features=256, out_features=256, bias=True)
              (1): Linear(in_features=256, out_features=256, bias=True)
              (2): Linear(in_features=256, out_features=2, bias=True)
            )
          )
          (1): MLP(
            (layers): ModuleList(
              (0): Linear(in_features=256, out_features=256, bias=True)
              (1): Linear(in_features=256, out_features=256, bias=True)
              (2): Linear(in_features=256, out_features=2, bias=True)
            )
          )
          (2): MLP(
            (layers): ModuleList(
              (0): Linear(in_features=256, out_features=256, bias=True)
              (1): Linear(in_features=256, out_features=256, bias=True)
              (2): Linear(in_features=256, out_features=2, bias=True)
            )
          )
          (3): MLP(
            (layers): ModuleList(
              (0): Linear(in_features=256, out_features=256, bias=True)
              (1): Linear(in_features=256, out_features=256, bias=True)
              (2): Linear(in_features=256, out_features=2, bias=True)
            )
          )
          (4): MLP(
            (layers): ModuleList(
              (0): Linear(in_features=256, out_features=256, bias=True)
              (1): Linear(in_features=256, out_features=256, bias=True)
              (2): Linear(in_features=256, out_features=2, bias=True)
            )
          )
          (5): MLP(
            (layers): ModuleList(
              (0): Linear(in_features=256, out_features=256, bias=True)
              (1): Linear(in_features=256, out_features=256, bias=True)
              (2): Linear(in_features=256, out_features=2, bias=True)
            )
          )
        )
      )
      (enc_output): Linear(in_features=256, out_features=256, bias=True)
      (enc_output_norm): LayerNorm((256,), eps=1e-05, elementwise_affine=True)
      (bezier_coord_embed): MLP(
        (layers): ModuleList(
          (0): Linear(in_features=256, out_features=256, bias=True)
          (1): Linear(in_features=256, out_features=256, bias=True)
          (2): Linear(in_features=256, out_features=8, bias=True)
        )
      )
      (bezier_class_embed): Linear(in_features=256, out_features=1, bias=True)
    )
    (input_proj): ModuleList(
      (0): Sequential(
        (0): Conv2d(128, 256, kernel_size=(1, 1), stride=(1, 1))
        (1): GroupNorm(32, 256, eps=1e-05, affine=True)
      )
      (1): Sequential(
        (0): Conv2d(256, 256, kernel_size=(1, 1), stride=(1, 1))
        (1): GroupNorm(32, 256, eps=1e-05, affine=True)
      )
      (2): Sequential(
        (0): Conv2d(512, 256, kernel_size=(1, 1), stride=(1, 1))
        (1): GroupNorm(32, 256, eps=1e-05, affine=True)
      )
      (3): Sequential(
        (0): Conv2d(512, 256, kernel_size=(3, 3), stride=(2, 2), padding=(1, 1))
        (1): GroupNorm(32, 256, eps=1e-05, affine=True)
      )
    )
    (bezier_proposal_coord): MLP(
      (layers): ModuleList(
        (0): Linear(in_features=256, out_features=256, bias=True)
        (1): Linear(in_features=256, out_features=256, bias=True)
        (2): Linear(in_features=256, out_features=8, bias=True)
      )
    )
    (bezier_proposal_class): Linear(in_features=256, out_features=1, bias=True)
    (ctrl_point_coord): ModuleList(
      (0): MLP(
        (layers): ModuleList(
          (0): Linear(in_features=256, out_features=256, bias=True)
          (1): Linear(in_features=256, out_features=256, bias=True)
          (2): Linear(in_features=256, out_features=2, bias=True)
        )
      )
      (1): MLP(
        (layers): ModuleList(
          (0): Linear(in_features=256, out_features=256, bias=True)
          (1): Linear(in_features=256, out_features=256, bias=True)
          (2): Linear(in_features=256, out_features=2, bias=True)
        )
      )
      (2): MLP(
        (layers): ModuleList(
          (0): Linear(in_features=256, out_features=256, bias=True)
          (1): Linear(in_features=256, out_features=256, bias=True)
          (2): Linear(in_features=256, out_features=2, bias=True)
        )
      )
      (3): MLP(
        (layers): ModuleList(
          (0): Linear(in_features=256, out_features=256, bias=True)
          (1): Linear(in_features=256, out_features=256, bias=True)
          (2): Linear(in_features=256, out_features=2, bias=True)
        )
      )
      (4): MLP(
        (layers): ModuleList(
          (0): Linear(in_features=256, out_features=256, bias=True)
          (1): Linear(in_features=256, out_features=256, bias=True)
          (2): Linear(in_features=256, out_features=2, bias=True)
        )
      )
      (5): MLP(
        (layers): ModuleList(
          (0): Linear(in_features=256, out_features=256, bias=True)
          (1): Linear(in_features=256, out_features=256, bias=True)
          (2): Linear(in_features=256, out_features=2, bias=True)
        )
      )
    )
    (ctrl_point_class): ModuleList(
      (0): Linear(in_features=256, out_features=1, bias=True)
      (1): Linear(in_features=256, out_features=1, bias=True)
      (2): Linear(in_features=256, out_features=1, bias=True)
      (3): Linear(in_features=256, out_features=1, bias=True)
      (4): Linear(in_features=256, out_features=1, bias=True)
      (5): Linear(in_features=256, out_features=1, bias=True)
    )
    (ctrl_point_text): ModuleList(
      (0): Linear(in_features=256, out_features=38, bias=True)
      (1): Linear(in_features=256, out_features=38, bias=True)
      (2): Linear(in_features=256, out_features=38, bias=True)
      (3): Linear(in_features=256, out_features=38, bias=True)
      (4): Linear(in_features=256, out_features=38, bias=True)
      (5): Linear(in_features=256, out_features=38, bias=True)
    )
    (boundary_offset): ModuleList(
      (0): MLP(
        (layers): ModuleList(
          (0): Linear(in_features=256, out_features=256, bias=True)
          (1): Linear(in_features=256, out_features=256, bias=True)
          (2): Linear(in_features=256, out_features=4, bias=True)
        )
      )
      (1): MLP(
        (layers): ModuleList(
          (0): Linear(in_features=256, out_features=256, bias=True)
          (1): Linear(in_features=256, out_features=256, bias=True)
          (2): Linear(in_features=256, out_features=4, bias=True)
        )
      )
      (2): MLP(
        (layers): ModuleList(
          (0): Linear(in_features=256, out_features=256, bias=True)
          (1): Linear(in_features=256, out_features=256, bias=True)
          (2): Linear(in_features=256, out_features=4, bias=True)
        )
      )
      (3): MLP(
        (layers): ModuleList(
          (0): Linear(in_features=256, out_features=256, bias=True)
          (1): Linear(in_features=256, out_features=256, bias=True)
          (2): Linear(in_features=256, out_features=4, bias=True)
        )
      )
      (4): MLP(
        (layers): ModuleList(
          (0): Linear(in_features=256, out_features=256, bias=True)
          (1): Linear(in_features=256, out_features=256, bias=True)
          (2): Linear(in_features=256, out_features=4, bias=True)
        )
      )
      (5): MLP(
        (layers): ModuleList(
          (0): Linear(in_features=256, out_features=256, bias=True)
          (1): Linear(in_features=256, out_features=256, bias=True)
          (2): Linear(in_features=256, out_features=4, bias=True)
        )
      )
    )
  )
  (criterion): SetCriterion(
    (enc_matcher): BezierHungarianMatcher(
      (bezier_sampler): BezierSampler()
    )
    (dec_matcher): CtrlPointHungarianMatcher()
    (bezier_sampler): BezierSampler()
  )
)
[07/09 11:02:37] fvcore.common.checkpoint INFO: [Checkpointer] Loading from weights/vitaev2-s_pretrain_synth-tt-mlt-13-15-textocr.pth ...
…
